Advanced TF/Load and Save/TensorLite for mobile/model.tflite (tflite, 903492 bytes, 8 tensors)

arith.constant f4 [64]
000000 61 d9 91 3c 24 fe a6 bd ae 62 6a bc 0d a3 0a 3d
       0.01780385 -0.08153942 -0.014305754 0.033846904
000010 a3 3e 15 be 42 0b 28 be 07 a6 75 be 33 96 57 3d
       -0.14574675 -0.16410545 -0.23989116 0.052633476
000020 ae e5 bb 3b f4 14 46 3d b5 39 19 bd 91 60 4e 3e
       0.005734167 0.048359826 -0.03740855 0.20154025
000030 7e 67 0f bd af 66 1b be c4 26 fa bc a0 eb c0 3e
       -0.035010807 -0.1517589 -0.030536063 0.37679768
000040 3d 7a 99 be bd 70 2e 3d 79 36 2d 3e 7a 8a 85 3d
       -0.29976073 0.042587984 0.16915311 0.06520553
000050 a4 6e db bc 0d 9e 9d bd ab b6 00 bd 65 02 99 3d
       -0.026786156 -0.076961614 -0.031424206 0.0747116
000060 aa 09 6e bc a1 7b 42 be 4c d9 d2 bd d5 a3 05 be
       -0.014528671 -0.18992473 -0.10295352 -0.13050778
000070 96 da a2 bd 56 bd 8f bc 2d f4 26 bd 3a 52 6d 3b
       -0.07951848 -0.017546337 -0.040760208 0.003621234
000080 32 4c 0b 3d d8 1b cb 3d 83 a8 b0 bd cf d4 bc bd
       0.034008212 0.0991742 -0.08625891 -0.092202775
000090 8b ec 72 3d 74 97 75 3e 24 cb 76 bd db 25 9d 3d
       0.059307616 0.23983556 -0.060252324 0.07673236
0000a0 4d 1e 0d 3e 23 6b d1 3d 60 c5 1c be 86 e7 9e 3c
       0.1378109 0.10225513 -0.15309668 0.019397508
0000b0 ca 7f c7 3e ba 46 93 3d 77 b9 3c be c3 49 bf bd
       0.38964683 0.071912244 -0.18430124 -0.09340241
0000c0 36 be 43 3d 1d 24 0b 3e 6a 6f 7f 3e da 5f 29 be
       0.04778882 0.13587995 0.24944845 -0.1654047
0000d0 49 a5 b6 bd c8 5b 24 3d 4d ee 42 be ec 43 ff 3c
       -0.089182444 0.040126592 -0.19036217 0.031160317
0000e0 2e 94 26 3d c4 f8 e3 3b 06 7c e9 bd c9 65 5a 3d
       0.04066866 0.0069571454 -0.11400609 0.053319726
0000f0 83 e8 e7 bd 87 48 eb 3c f4 a8 4b 3c 88 bc 9d 3e
       -0.11323645 0.028721107 0.012430418 0.308079

arith.constant1 f4 [64, 3, 3, 32]
000000 0f 2a 7b 3d ef dd 85 be 7d 1c 10 3d 43 2f 6a be
       0.061319407 -0.26145884 0.03518342 -0.22869591
000010 ce 59 95 be 90 2d 1d 3d fd 2c ee 3d d1 0c a5 bc
       -0.29170078 0.03837353 0.116296746 -0.020147713
000020 15 c9 2a 3e 50 ba 25 3c 00 db 56 3d 11 5d 99 bd
       0.16678269 0.010115221 0.05245495 -0.07488454
000030 cb 72 70 bc 49 cf 47 be c2 77 a3 3d 0f b0 a4 3c
       -0.014675806 -0.19512667 0.07981826 0.020103483
000040 97 21 f8 bd 23 33 b5 3b 87 26 c5 3c bf bd b1 3c
       -0.12115782 0.0055297776 0.024066223 0.021696923
000050 d9 4d 3e 3e b1 33 9f bd 7f 58 81 bd 69 43 e7 3d
       0.18584384 -0.07773531 -0.063157074 0.11292154
000060 30 44 bc 3b c2 a4 54 3d 93 1c 8c bd a7 3e 80 be
       0.0057454333 0.051914938 -0.068413876 -0.250478
000070 43 2d 28 be 31 40 b2 3d 9e 29 95 bd 19 fa 5c 3b
       -0.16423516 0.0870365 -0.072833285 0.0033718406
000080 c8 f3 8c 3d cf 8f 07 3d df 7b 4a be 25 e9 de 3d
       0.06882435 0.03309613 -0.19773816 0.108843125
000090 26 cd b5 3e 28 c9 a2 3d 89 fb 6c 3b f9 19 fb bd
       0.35508078 0.07948524 0.0036160669 -0.12260813
0000a0 b7 23 91 bb 50 73 5f bd f4 9f 7e 3d 47 76 31 bd
       -0.0044293064 -0.05455333 0.062164262 -0.04332569
0000b0 d6 29 1d be 57 e3 82 3e 1b 98 b3 bc ed 9d 1c 3e
       -0.1534799 0.25564072 -0.021923115 0.15294619
0000c0 40 c4 b9 bd 96 3d 4e 3e 39 ef 21 3e b5 68 a8 bd
       -0.09070635 0.2014068 0.15813912 -0.08223096
0000d0 a4 ed be bc 9e c1 7a 3e 91 45 95 bd 32 d0 f6 bd
       -0.023306675 0.24487922 -0.07288659 -0.12051429
0000e0 90 a0 05 be 79 a4 97 bd 13 b1 bb 3d 36 a5 88 bd
       -0.13049531 -0.074044175 0.091646336 -0.066721365
0000f0 b3 b7 cd bd 5a 23 ea 3b 69 0a 30 bd 44 43 bf 3e
       -0.100448035 0.0071453275 -0.042978678 0.37356007
000100 e2 49 84 3d 11 b8 8a be a1 7b ae bb 0a 49 50 3e
       0.064594045 -0.27093557 -0.0053247963 0.20340362
000110 7b d6 b9 3e d7 90 2d be 92 01 56 bd 44 d2 8d be
       0.36296448 -0.16949783 -0.05224759 -0.27699482
000120 ca ea 71 be b2 52 84 3e d3 a3 8a 3d 5b 20 0b be
       -0.23624721 0.25844342 0.06769528 -0.13586561
000130 06 ff 21 3d d9 9f 08 3c 75 b7 81 3d 84 e7 84 bd
       0.03954985 0.008338892 0.0633382 -0.064894706
000140 b9 21 be 3c 3b 02 59 3c a6 f9 12 be 49 d5 4b 3e
       0.02320944 0.013245161 -0.14353046 0.1990558
000150 d7 6c 24 be 59 ef 06 3d 13 e8 00 bd 0f 98 a5 3d
       -0.16057144 0.032943103 -0.031471323 0.080856435
000160 0e a8 f5 3d c2 4f c5 3d 1c 5e 2c 3e 2b 3a 11 3e
       0.119949445 0.09634353 0.16832775 0.14182346
000170 1c 60 dc 3d eb 4d 1e bd 8b de 39 3e 23 ad c4 bd
       0.10760519 -0.038648527 0.181513 -0.09603336
000180 be a1 86 bd 65 34 05 3e 5a 4d 02 be 97 9e c8 be
       -0.065738186 0.13008268 -0.1272482 -0.39183494
000190 db 81 82 3d 5a 24 0e 3d 21 d3 12 3d a2 91 01 3d
       0.06372424 0.034702636 0.03584588 0.031633027
0001a0 86 fe 7b 3d 56 ac dd bc a7 8a 57 3e 6f f5 5c be
       0.06152203 -0.027059715 0.21048985 -0.21578
0001b0 34 c0 28 be f0 38 18 bd 2f 47 3c be e9 9d 0b bc
       -0.1647957 -0.037163675 -0.1838653 -0.008521535
0001c0 23 35 ec bb c2 6f 65 be 2d 67 a6 3e 1b 08 da bd
       -0.007208483 -0.22405913 0.32500592 -0.10646077
0001d0 b3 61 e4 3d 8f 06 c8 bd 3c 4b bb 3b 03 e0 6e 3c
       0.11151447 -0.09766876 0.0057157557 0.014579776
0001e0 98 27 1a 3d e1 15 9d bd a0 25 41 be 5e 0d d5 bd
       0.037635416 -0.07670189 -0.18862009 -0.1040294
0001f0 d3 54 aa bd 5b 31 31 3c 35 36 5a 3e 96 4c e6 3d
       -0.0831696 0.01081499 0.21309741 0.11245076
000200 ef c4 fd 3d 42 88 3c 3e be 57 b1 3d 42 fe b6 be
       0.12391078 0.18411353 0.086593136 -0.35740858
000210 09 3d 14 bd 4f c2 be bd 79 90 35 3c 8c 63 94 bd
       -0.03619102 -0.09314405 0.011081808 -0.072455496
000220 bf 9a b0 bd cd 93 f4 bd 83 d0 25 be 52 11 80 be
       -0.086232655 -0.11942253 -0.16192822 -0.25013214
000230 cb 88 1e 3d 34 8c 92 bd d8 a1 b4 3d 93 68 67 bd
       0.038704675 -0.07155648 0.08819932 -0.056496214
000240 ce 72 09 bd d1 07 b1 bc 5e 1c ad bd d6 3d cc bd
       -0.033556752 -0.021610172 -0.08452676 -0.09972732
000250 1d 1c 15 3d 13 35 bc bd 5c d1 ac 3d 51 55 59 3e
       0.036403764 -0.091898106 0.0843837 0.21223952
000260 25 ac c2 bd 04 8e 06 bc ba 86 70 be 36 80 09 be
       -0.0950549 -0.00821257 -0.23488894 -0.13427815
000270 12 8d 95 bd 86 66 06 be f6 c4 96 3d 40 7e d4 bd
       -0.07302298 -0.13125047 0.07361786 -0.10375643
000280 0d d2 05 3e b8 f9 aa be 9e c1 af 3d ae ed 15 3e
       0.1306841 -0.33393645 0.085818514 0.14641449
000290 7b 66 76 3d 4b d7 95 bd 7d 72 93 3d bb 2c f1 be
       0.060156327 -0.073164545 0.07199571 -0.4710444
0002a0 43 d4 23 bf 00 e2 16 3c 48 02 4e 3e 17 b8 4e bd
       -0.6399576 0.009209156 0.20118058 -0.05046853
0002b0 57 86 a7 3c e2 d5 ae 3d cd 8f 3f 3e cc f5 a5 be
       0.0204498 0.08536889 0.187072 -0.3241409
0002c0 d1 97 b5 3d d7 25 c3 3d 84 f1 bf 3d d0 80 43 bd
       0.08866847 0.09528702 0.09372237 -0.047730267
0002d0 fd ab 27 3e 1c 21 8d 3e bf 24 e2 3c 49 1d f7 bd
       0.16374202 0.27564323 0.027605413 -0.120661326
0002e0 15 71 6e bc bb 1f 0d 3d 3d ed 10 3e b0 8f 54 bd
       -0.014553328 0.03445409 0.14152999 -0.051894844
0002f0 a7 1b 72 3e 62 4c 9f be 67 32 40 bd 78 f4 bd 3e
       0.23643361 -0.31112963 -0.046923067 0.37100577
000300 74 60 ee bc c0 16 5b 3e 8c fe b4 bd c3 7b b5 be
       -0.029098727 0.21395397 -0.088376135 -0.35445985
000310 04 57 f0 bd 8a 23 29 3e 00 32 54 3b c9 b8 16 bd
       -0.11735347 0.16517463 0.0032378435 -0.03679732
000320 42 44 d0 ba a9 63 c0 bd 86 a0 07 be 53 a2 b7 3d
       -0.0015889483 -0.09394009 -0.13244829 0.08966508
000330 7c 26 7f 3d b6 db 87 be be e9 c1 bd 45 c5 9e bc
       0.06229256 -0.26534814 -0.09468411 -0.019381175
000340 2f ec ea be 36 7b c4 be 34 3f e3 3c f9 0f 51 bd
       -0.4588332 -0.38375252 0.027740099 -0.051040623
000350 a3 9a b5 bc 25 f2 19 be aa 5b 65 3c 73 2a 2e 3d
       -0.022168463 -0.15033777 0.013998905 0.04252095
000360 48 68 74 bd 2d 94 5d be e3 9f de be e0 e9 da bd
       -0.059669763 -0.21638556 -0.4348136 -0.10689139
000370 e0 c8 73 be 24 2c c3 3d 1c 90 5c bc 26 ad e8 be
       -0.23807096 0.095299035 -0.013462093 -0.45444602
000380 2e 74 dd 3d d6 e2 cd 3e 4b 2a aa 3d ba 22 7b be
       0.10813175 0.40212125 0.08308848 -0.24524966
000390 fc 2e ce 3b e5 c7 10 3e 64 fe 4c bd 83 89 a6 be
       0.006292222 0.14138754 -0.050047293 -0.32526788
0003a0 b0 bc 06 be 40 e8 c6 be 34 7b 73 be c1 2d 5d 3d
       -0.13157916 -0.38849068 -0.23777467 0.053998712
0003b0 e7 58 25 be 19 a4 2c be 73 9b d7 3c ec 37 c8 3d
       -0.16147195 -0.16859473 0.026319241 0.09776291
0003c0 d5 ce 09 bf 20 2b 3b be dc cd ae 3d 6b 7b fa bd
       -0.53831226 -0.1827817 0.08535358 -0.12230571
0003d0 df 53 0b be b7 37 bd bc 07 a0 86 3d dd ff fa 3d
       -0.13606213 -0.023097856 0.065734915 0.12255833
0003e0 b6 4d d3 3b 16 5d 79 be 73 92 f1 be 9a 0f 70 be
       0.006448473 -0.24351916 -0.47182044 -0.23443452
0003f0 16 1f f8 3b b3 55 b0 bb b2 34 3d be 94 d9 59 be
       0.007572065 -0.00538131 -0.18477133 -0.21274406

arith.constant2 f4 [10, 128]
000000 58 77 e5 3d 61 7e a9 bc 20 a6 7f bd 9f cd 3e bd
       0.11204404 -0.020690145 -0.06241429 -0.046582814
000010 dd 26 be 3e 63 b4 e5 3e f1 2c 67 3c 03 d4 f6 bd
       0.37139025 0.44864187 0.014109836 -0.12052157
000020 3b 3b dc 3d 84 9c 94 3e c2 ad d5 be 42 ca a3 3e
       0.10753485 0.29025662 -0.4173413 0.31990248
000030 a2 cd c5 bd a3 7b 21 3e 56 5a af 3e 1e e9 07 be
       -0.09658362 0.1576982 0.34248608 -0.13272521
000040 48 ae 00 bf 69 24 8d be c1 fb ff 3c a8 88 3c bd
       -0.5026593 -0.2756684 0.031247975 -0.046028763
000050 dd 84 2f be b4 d4 d2 3d 95 c1 2e 3e ab 32 85 bf
       -0.17140527 0.10294476 0.17066033 -1.0406088
000060 6b 5b 91 be 14 5e 4a 3e ab 13 10 3d 55 ff 01 3e
       -0.2839006 0.1976245 0.035175007 0.12695058
000070 11 8a 06 3e 77 f8 0a 3e c6 b3 62 bf 1a f7 2b be
       0.13138606 0.13571344 -0.8855556 -0.1679348
000080 ba b5 1a be 6d e0 13 3e 0a 74 0b 3e 9b f7 43 be
       -0.15108386 0.1444108 0.13618484 -0.19137423
000090 35 4e 14 3e 51 7c f9 3b 27 e9 0f be d2 68 28 3e
       0.14482959 0.0076136966 -0.14053784 0.16446236
0000a0 49 86 2f be ef 70 3d be c8 62 92 bd 6a fa 20 be
       -0.1714107 -0.18500112 -0.07147747 -0.15720525
0000b0 ee e9 3f ba 7f 71 b0 be ae 4d 16 bf 91 51 45 3e
       -0.000732093 -0.3446159 -0.5871228 0.19269396
0000c0 4f 82 29 bd 62 cb 18 3e 56 09 24 3e fe 43 91 3e
       -0.041384038 0.14921334 0.16019186 0.28372186
0000d0 e6 31 9c 3d 33 a4 53 bd d3 44 bb be 85 ea cb 3a
       0.07626705 -0.051670264 -0.36575946 0.0015557563
0000e0 71 30 3d 3e 6d bc b4 bc a7 69 1b bd b2 39 07 bf
       0.1847551 -0.022062505 -0.037942555 -0.5282241
0000f0 0f 1e a0 3d 3e e1 ea be a9 b1 29 3e 4a 69 eb 3b
       0.07818233 -0.4587497 0.16571678 0.0071841823
000100 16 46 03 be 88 e6 93 3e aa bc 3e 3e 34 c1 b2 be
       -0.12819704 0.2888682 0.18626657 -0.34913027
000110 c1 35 16 be 0c 3d ee be bd f3 28 be e5 9f 19 3e
       -0.14668943 -0.4653095 -0.16499229 0.15002401
000120 58 4f da 3d 4e 7c 77 be ae 95 6f 3c fe 2b 5d be
       0.10659665 -0.24168512 0.014623089 -0.21598813
000130 88 4d a1 3d 7d 25 7a bd 66 8a cf 3d 3e 24 4b 3e
       0.07876116 -0.061070908 0.10133819 0.19838044
000140 23 c7 4e bd d0 69 8d be b2 78 cf be 43 e5 4a be
       -0.05048288 -0.2761979 -0.4052177 -0.19814019
000150 2b ee c2 3d b4 31 5a 3e 2e 91 19 3e 2e 76 e0 3e
       0.09518083 0.21308023 0.14996788 0.43840164
000160 f9 69 0b 3d 58 d7 10 be ee 2d 84 3e 87 81 66 be
       0.03403661 -0.14144647 0.25816292 -0.22510348
000170 a5 85 be be 31 32 04 be 40 c0 29 3e d9 7d aa 3c
       -0.37211338 -0.12909772 0.16577244 0.020811962
000180 ce f1 93 3e f7 b9 ed 3d 66 f1 d8 3d 41 b6 02 3e
       0.2889542 0.116077356 0.10592918 0.12764837
000190 cd 1f 3f 3e f9 39 a3 3c fc 0e 3d 3e bb 48 5b 3e
       0.18664475 0.019925104 0.18462747 0.21414463
0001a0 7c d1 50 3e a4 58 5c be 05 4f e5 be 7c e0 fc 3d
       0.20392412 -0.21518189 -0.4478685 0.123475045
0001b0 93 9d 15 3e 77 d2 b0 bd e4 ea 57 be 23 70 b7 be
       0.14610891 -0.08633893 -0.21085697 -0.3582774
0001c0 c3 be 89 be b0 e6 b2 3d 87 cf 3d 3e e1 e9 02 bf
       -0.26903352 0.087354064 0.18536197 -0.5113812
0001d0 9e 63 b2 3d ab ac 1b 3e 48 8e 42 bb 0e e1 33 3e
       0.08710407 0.15202586 -0.0029686857 0.1756632
0001e0 ac 60 fb 3d c7 2a ab 3d 4d fa 5e be 51 c2 34 3e
       0.12274298 0.083577685 -0.2177517 0.17652251
0001f0 82 a9 1c bd 31 19 48 3e 72 ab 49 be a5 f6 72 3d
       -0.038247593 0.1954086 -0.19694307 0.05931725
000200 1f 14 39 3d 13 05 84 3e 88 a3 b2 be 81 54 1e be
       0.045185205 0.2578512 -0.3489039 -0.15461923
000210 42 f6 99 be 94 93 83 be d6 72 95 3c 98 bc 58 be
       -0.30070692 -0.2569853 0.018243235 -0.21165693
000220 48 14 99 be 7e b7 a3 be 68 06 c4 be ef aa 7b be
       -0.29898286 -0.3197593 -0.38286138 -0.24576925
000230 66 a6 b9 be 92 61 e8 be 5e d3 d6 3d 23 d9 2c 3e
       -0.36259764 -0.4538694 0.10489534 0.16879706
000240 f7 1a da bd 62 70 d4 3e 85 5e e9 be 3a 39 d7 bd
       -0.106496744 0.4149199 -0.45579925 -0.10508962
000250 5f 04 16 3e 7e e3 43 be cc f6 e2 be 25 fe 81 bf
       0.14650105 -0.1912975 -0.44328916 -1.0155684
000260 d3 e9 a0 3e 5d 6c 1b be f0 6f 2e be 70 1e 06 bf
       0.31428394 -0.15178056 -0.17034888 -0.52390194
000270 87 ba 8d bb 89 d7 93 be ab 15 66 3d e5 7f 1f 3e
       -0.0043252143 -0.28875378 0.056173008 0.15576132
000280 fb a7 e9 bd a3 80 62 3d fc 7d 08 3e 36 70 7c 3e
       -0.11408993 0.05529846 0.13329309 0.2465218
000290 2e 2e 38 3f 74 33 b4 be fa 08 b6 be 4a 41 e6 bd
       0.71945465 -0.35195506 -0.35553724 -0.11242922
0002a0 e8 94 2c be 02 0a a6 3e 2b 3d 8f 3e 25 4d 6c 3e
       -0.16853678 0.3242951 0.27976355 0.23076303
0002b0 26 ee 32 bd 96 a7 ae 3d 9b 0d 13 be 1a 48 17 bf
       -0.043684147 0.08528058 -0.14360659 -0.59094393
0002c0 9d 77 f8 3d 82 83 9a 3e 6c 04 16 bf a9 88 c8 3d
       0.121321894 0.30178457 -0.586005 0.09791691
0002d0 76 6d 92 bd d2 b8 97 be 96 e6 3d be a4 a7 13 bf
       -0.07149784 -0.29633194 -0.18544993 -0.57677674
0002e0 f0 80 da be 7e 47 29 3e f3 d7 2b 3e ec 16 f1 bc
       -0.42676497 0.16531178 0.16781597 -0.029429875
0002f0 fb 2e 91 3e 79 c8 9c 3e 49 3e 0e 3f 27 2f 02 be
       0.28356156 0.30621698 0.5556379 -0.127133
000300 79 f6 3d be 75 75 0f bf f1 ca 9c be d3 ce d5 bd
       -0.18551053 -0.560386 -0.30623582 -0.10439839
000310 1d c8 eb bd ca da 0e bf 7d 04 ad 3b 36 60 d9 3d
       -0.11512778 -0.55802596 0.005280076 0.10614054
000320 6a 61 f2 bd 17 47 bb be de 30 04 bf cf 32 1d be
       -0.118349865 -0.36577675 -0.51637065 -0.15351413
000330 6a 1a 4c 3e 9d aa 5d be 3f 30 03 3e f2 65 ff bd
       0.19931951 -0.21647115 0.12811373 -0.124706164
000340 cf 48 0d 3d 44 63 76 be 34 f5 a5 bd 1f 94 11 3e
       0.034493264 -0.24061304 -0.081034094 0.1421666
000350 76 65 2f bf fc 40 3c bf 92 bc 16 3e 39 86 f2 bd
       -0.6851419 -0.7353666 0.14720371 -0.11842007
000360 15 a9 72 3e 0c 82 c5 bc e3 7f 3b 3e 4f 14 9c be
       0.23697312 -0.024109863 0.18310504 -0.30484244
000370 4c 48 d0 be b7 bd 99 be db d0 58 be be 76 c9 be
       -0.40680158 -0.30027553 -0.21173422 -0.39348406
000380 00 75 a4 bd c9 3b 2c bf 60 65 c8 3d e0 8b 9b be
       -0.080301285 -0.67278725 0.09784961 -0.30380154
000390 2e 72 05 bf 3b b3 c4 3e ee 84 95 bc 3a 6a be bd
       -0.5212735 0.38417992 -0.018251862 -0.09297605
0003a0 36 a2 3c bf 49 3e 3a bb 60 d5 0e 3f 98 5f 02 3f
       -0.73685014 -0.0028418473 0.55794334 0.50927114
0003b0 c0 47 e4 3d 2e 48 d8 3e 00 67 06 bf 83 f7 c6 3d
       0.11146498 0.4224257 -0.52500916 0.09715178
0003c0 50 9d 25 3e 18 83 2b 3e 59 6c 78 bd f5 67 f5 bd
       0.16173291 0.16749227 -0.060650203 -0.11982719
0003d0 ec 10 7c 3d 23 11 39 be 9d 23 33 be 80 19 5a 3e
       0.061539575 -0.18072943 -0.17494054 0.2129879
0003e0 6c 1a 20 bf de 9a 95 3e 97 af 5c be 3c ae 01 bf
       -0.62540317 0.29219717 -0.21551357 -0.50656486
0003f0 53 00 23 3e 50 62 e3 be 9c 75 73 3d be 55 cf 3d
       0.15918092 -0.44410944 0.059438333 0.10123776

arith.constant3 f4 [128, 1600]
000000 aa 60 c3 bc 57 4d db 3b 20 80 df bd f9 b7 82 3d
       -0.023849804 0.0066925692 -0.1091311 0.06382746
000010 75 40 2f bd 20 b8 86 bd 0d 01 09 be 3e 10 00 bf
       -0.04278608 -0.06578088 -0.13379307 -0.50024784
000020 b4 9e 00 be 48 89 fd 3b 61 ec 5e 3d c1 d9 1d be
       -0.1256054 0.0077373125 0.054424647 -0.15415098
000030 67 b1 84 3d a8 64 5f bd 15 ce 5f be 93 47 3b bd
       0.06479149 -0.054539353 -0.21855958 -0.045722555
000040 92 62 69 be 5c df da bd 5b 86 04 be d9 dc cf be
       -0.22791508 -0.10687134 -0.12941878 -0.4059818
000050 1d 2d 61 be 05 55 b4 3d 41 97 ac be 15 ce 98 bd
       -0.21989866 0.08805279 -0.33709148 -0.07461182
000060 f3 41 22 bd 4c b0 27 bd 95 ab e8 bd ef 3b 8e be
       -0.039613675 -0.040939614 -0.11360852 -0.277801
000070 55 30 22 be a7 bf db bd 24 91 0a 3e d2 de 61 3e
       -0.1583875 -0.10729914 0.13531929 0.22057655
000080 8d 55 6e 3d 2c 50 c8 3c c8 1c 14 be a3 53 4d be
       0.058187056 0.024452291 -0.14464104 -0.20051436
000090 e7 7c e1 bd ce 13 6e be 16 a8 a7 3c fe 49 e5 3d
       -0.11010151 -0.23249742 0.020465892 0.111957535
0000a0 e3 b9 31 3c f4 c7 98 ba ea 4e ff bc b6 b4 18 be
       0.0108475415 -0.001165627 -0.031165559 -0.14912686
0000b0 a0 87 16 3d 74 58 e9 3d 5e 35 0d 3e 30 79 af 3d
       0.036750436 0.11393824 0.13789889 0.085680366
0000c0 fa 45 52 bc 71 6c 1c be 4d 91 10 3e b1 3f ea bd
       -0.0128340665 -0.15275742 0.14117928 -0.114379294
0000d0 4d 8d dd bd 92 f2 a1 be bf e6 c8 bd a8 dc 66 bb
       -0.108179666 -0.3163038 -0.09809636 -0.0035226736
0000e0 b4 13 01 be 09 88 95 be 81 8b 17 be 6a ea 87 3e
       -0.12605172 -0.2920535 -0.1479931 0.2654603
0000f0 4a 7d 8f bd 3f 64 c8 3b c9 00 b3 bd e8 b1 d0 bd
       -0.07006319 0.006115466 -0.08740384 -0.10190183
000100 c1 62 e1 3d e8 f0 0a be 5f 42 de 3c aa 28 0b 3e
       0.11005164 -0.13568461 0.027131258 0.13589731
000110 25 a5 35 be 25 23 5e 3e 7c 87 87 bd 76 ff 51 be
       -0.17738779 0.21693094 -0.066176385 -0.20507607
000120 9f 67 72 3e 52 e6 32 3e ee 44 22 be 6f 11 4a bd
       0.23672341 0.17470673 -0.15846607 -0.049333032
000130 0d aa 48 be 16 2c 23 be 6a 02 76 3d f3 6b 33 3e
       -0.19596119 -0.15934786 0.060060896 0.17521648
000140 3e 76 21 bc 74 46 04 be de ae c5 bd 16 57 6c 3e
       -0.009854851 -0.129175 -0.09652494 0.23080096
000150 f7 33 eb 3d 51 1a ac bd 9d 5e 27 3d b1 d0 8f bd
       0.11484521 -0.08403457 0.040861715 -0.070222266
000160 13 68 43 3e 38 40 5b 3d 59 13 01 3e b9 7c ef bb
       0.1908267 0.05352804 0.12605037 -0.0073085693
000170 1f 5a c1 bd 5f 45 ec 3d 3c ae a0 be 31 4a 14 3e
       -0.09441017 0.11536669 -0.3138293 0.14481427
000180 ea 74 d0 be 23 b5 17 be 92 c7 90 be 40 18 63 be
       -0.40714198 -0.14815192 -0.2827726 -0.2217722
000190 bc d3 6f be 09 a6 c8 bc 34 34 27 bc 7a 38 a4 3d
       -0.23420614 -0.024493234 -0.010205317 0.080185845
0001a0 96 00 1d be 18 f0 4b 3d dd 7d a1 3d bd ea f4 3d
       -0.15332255 0.049789518 0.07885335 0.11958835
0001b0 d7 b0 fb 3d 09 ea 0c be 80 d1 d5 3d 70 e0 68 bd
       0.12289589 -0.13761152 0.104403496 -0.056854665
0001c0 df 17 04 3e d2 d5 87 3e 60 61 de 3d 40 80 95 be
       0.12899731 0.2653032 0.108584166 -0.2919941
0001d0 2e 06 0e be da d2 43 3e 92 d7 95 3d 05 7c bb bd
       -0.13869545 0.19123402 0.073165074 -0.09154514
0001e0 d3 cb cc bd 77 be b9 3c f6 cf 1a 3e 59 73 95 bc
       -0.09999814 0.022673829 0.15118393 -0.018243479
0001f0 f5 74 3b be be 1c 84 be ca d8 85 bb bb 80 12 3e
       -0.18306334 -0.2580318 -0.004084681 0.1430692
000200 d5 e7 29 bd 6b c0 4b 3e 71 08 bc bc f5 ca 50 3e
       -0.041480858 0.1989762 -0.022953244 0.20389922
000210 38 a1 96 bd aa c5 9e be b3 e3 14 3e 6d 72 75 bc
       -0.07354969 -0.3101018 0.14539985 -0.0149808945
000220 7a 4f 55 be 72 e5 81 be de 26 01 3e 40 12 8b bd
       -0.20831099 -0.25370365 0.12612483 -0.0679059
000230 50 3f 8d 3d cb 86 35 bd b5 b6 1a 3c a2 53 98 be
       0.068968415 -0.044318 0.009442975 -0.29751307
000240 1e ec 31 3e fb ea e7 ba 44 7c 61 3d 57 72 37 3e
       0.17375228 -0.0017693931 0.05505015 0.17914711
000250 f6 e8 28 3e 1e 7e 5a 3e 20 76 a8 bd 65 2d 1d be
       0.16495118 0.21337172 -0.082256556 -0.15349348
000260 b5 32 bd 3c 5c a5 1f bd 66 ea 26 3e af 0e e1 be
       0.023095468 -0.03897606 0.16300353 -0.43956515
000270 00 13 a3 bc 39 53 8c 3e 31 16 c8 3e 0b db 2d bb
       -0.01990652 0.27407244 0.3907943 -0.0026528265
000280 ff 7a a2 3d 76 85 0d 3e e4 a7 f0 bd a8 b0 57 3e
       0.07933616 0.13820443 -0.117507726 0.21063483
000290 7d 0e dc be 63 f5 38 3e 79 fc 32 3c 5f 78 d7 be
       -0.42979804 0.18062358 0.010924452 -0.42084023
0002a0 4c 31 ed bd ec 3d db 3c a8 03 40 be 52 3c 95 bc
       -0.11581668 0.026762925 -0.18751395 -0.01821724
0002b0 02 4f 22 3e 23 a2 93 3d a6 57 09 be c2 76 9f bc
       0.15850452 0.072086595 -0.13412341 -0.019465808
0002c0 19 75 9c be 0f 81 d1 3d 36 0e 4d 3e 3b f2 4e be
       -0.30558088 0.10229694 0.20024952 -0.20209591
0002d0 c1 06 b1 3d 90 59 d4 3c a4 15 a9 3e 7e 5b 05 3e
       0.08643866 0.025921613 0.33024323 0.13023183
0002e0 28 84 7d 3b c5 f6 d1 3d f8 72 17 bf 67 8d 86 be
       0.0038683508 0.10252146 -0.59159803 -0.26279756
0002f0 d2 b9 80 3d e7 de ce bd a8 42 cc bc a3 9c eb 3d
       0.062854424 -0.10101109 -0.024934128 0.115044855
000300 e6 78 81 3e 6a f4 83 be 98 cf 1c be 1b 14 8e 3d
       0.2528755 -0.2577241 -0.15313566 0.069374286
000310 88 ba 20 3d 00 fc 85 bd cf c9 97 bd f5 6d b9 bc
       0.03924039 -0.06542206 -0.07411539 -0.02263544
000320 f1 07 21 3e 48 82 ec bd 12 aa 8f bd e9 b9 e1 3d
       0.15725686 -0.11548287 -0.0701486 0.11021788
000330 6d 33 25 3d ef e6 81 3d 4a 1e a9 bd 88 f3 95 3d
       0.040332247 0.06342875 -0.0825773 0.073218405
000340 6d 7e 27 bd 82 0e 45 bd 54 16 12 3e 04 4c 59 3e
       -0.040892053 -0.04810954 0.1426633 0.21220404
000350 11 3d 4f be a6 47 66 be 01 e1 94 be f9 e6 a4 be
       -0.20238139 -0.22488269 -0.29077914 -0.32207468
000360 f6 81 1b 3e 45 4b 58 bc 1b 6c 9d 3d 24 a3 e2 3e
       0.15186295 -0.013201539 0.07686635 0.4426509
000370 94 0a 61 bd 99 cb 07 3d 74 5c ac 3d 7c 3f 1a 3d
       -0.05494173 0.03315315 0.084160715 0.0376582
000380 ce f1 d2 3d 39 3a b1 be 9b 22 71 bc 44 2c 2e bd
       0.10300027 -0.34614733 -0.014717723 -0.042522684
000390 65 93 17 bd 74 0d 3a 3c 49 4c af bd 05 54 28 3c
       -0.0370058 0.011355747 -0.08559472 0.010273938
0003a0 66 bf 41 3d 07 8f 12 bf 2e d4 4f 3d 8c c8 35 3e
       0.047301672 -0.5724949 0.05073946 0.17752284
0003b0 c4 95 d0 bc 0c ae fe bd 1c 44 8d be b4 a7 1c 39
       -0.025462039 -0.124355406 -0.27591026 0.00014939794
0003c0 8d f0 68 3d 56 84 e1 3e b7 c6 21 3e db 62 6d be
       0.056870032 0.44046277 0.1579846 -0.23182242
0003d0 0e 3a bb bc 0c 3b f5 3d 9b b2 05 bc 86 c6 e6 3d
       -0.022854831 0.11974153 -0.008160259 0.11268334
0003e0 59 eb 3e 3e 14 e8 f3 bd 66 22 b7 3e fd 31 09 bd
       0.18644466 -0.119095 0.3576843 -0.03349494
0003f0 18 1b 2c 3e f1 6f b4 3d 3b db 3e 3d c5 e2 23 be
       0.1680721 0.08810414 0.046595793 -0.16004474

arith.constant4 f4 [128]
000000 36 34 09 3e f6 b4 8e 3c 34 bf 96 bd 86 44 5b bd
       0.13398823 0.017420273 -0.07360688 -0.053532146
000010 ca 59 82 3d 0f 19 02 be 88 71 55 3e 05 3b 4c 3e
       0.06364782 -0.12704872 0.2084409 0.19944389
000020 f7 59 0d be e7 9f b0 3d b7 b8 bd bc 57 45 1a be
       -0.1380385 0.08624249 -0.023159368 -0.15065514
000030 d1 74 15 3e 02 04 1f 3e d7 9f 01 be 91 c3 44 3e
       0.14595343 0.15528873 -0.1265863 0.19215228
000040 d0 e9 93 bc c8 ee 4c 3c 90 c9 71 bb 8b ea af bd
       -0.018055826 0.012508102 -0.0036893822 -0.085896574
000050 7a 9e a9 3c 41 37 40 3e e0 8d 44 3d c0 6c a3 3e
       0.02070545 0.18771078 0.047986865 0.31918907
000060 a8 79 a5 bc 1e 47 85 3d 21 e2 8d bd 43 04 11 bd
       -0.020199612 0.06507705 -0.06927896 -0.035404455
000070 28 85 89 bc 51 5b 2b 3e f5 1c 54 3e 6b 61 49 bd
       -0.016787127 0.16734053 0.20714171 -0.04916517
000080 60 66 06 3e c1 8e 02 bd 71 cc 2d 3d 40 cb b5 bc
       0.1312499 -0.031874422 0.0424313 -0.022191644
000090 e6 f1 45 3e 54 ac 74 3e d6 9d ed bd 0a dc f6 3d
       0.19330558 0.23893863 -0.116023704 0.12053688
0000a0 13 d3 55 bc f1 19 77 3e 9f 01 42 3e ca cb 52 3d
       -0.013050812 0.2413099 0.18945931 0.05146388
0000b0 c3 a0 1d bc 95 c7 91 3d 2a fd fa 3c 26 a4 70 3e
       -0.009620848 0.071181454 0.030638296 0.23500118
0000c0 cf e2 91 bd bc 6e b7 3d de 52 46 3e b0 03 ac bd
       -0.071233384 0.08956668 0.19367549 -0.08399141
0000d0 c9 dc ca bc e8 42 74 3d a4 40 9e 3e f9 07 75 3c
       -0.024763482 0.05963412 0.30908692 0.014955514
0000e0 8e 3d 8d 3e 74 bc d7 3d 21 2d 4f bc 20 8d 35 3e
       0.27586025 0.105339915 -0.012645037 0.17729616
0000f0 28 97 e8 bc 1b 3f 05 3e 05 68 53 bd 77 c6 ed bc
       -0.02839239 0.13012354 -0.051612873 -0.0290253
000100 3d 6d c4 bc 71 13 af 3d 7d 70 cc 3d 43 3e 5f 3c
       -0.02397787 0.0854863 0.09982393 0.013625684
000110 66 32 80 bd 74 b1 01 3c 0e 84 04 3c d2 5b 6c bd
       -0.06259613 0.007915843 0.008088125 -0.057704754
000120 48 48 99 bc b0 d8 65 3e 7b 88 4d 3e 07 1b 26 bd
       -0.018711224 0.22445941 0.20071594 -0.04055312
000130 21 02 ee 3d fc 91 cc bc 5b df 0c be 4c dd 5d 3d
       0.116215 -0.024971955 -0.13757078 0.054166123
000140 66 27 db 3d f6 3a d4 bd d9 f5 36 3e 4c fe 9a 3d
       0.10700874 -0.103628084 0.17867221 0.075680345
000150 7d 51 26 3e 7a 40 a5 bd 15 37 de 3d cb b3 b2 3d
       0.16242023 -0.080689386 0.1085035 0.08725699
000160 30 cb 56 3c 90 df de b9 c6 98 29 3e 0a 55 78 3c
       0.013109967 -0.00042509707 0.16562185 0.015156994
000170 8c e5 da b9 4c 82 3e 3e 7d f4 5c 3c 22 ee 03 3d
       -0.00041751226 0.18604392 0.013486025 0.032209523
000180 de ba 0d 3e bf 13 2e bd 1c 6a 1b 3d f1 36 10 3c
       0.13840815 -0.0424993 0.03794299 0.008802162
000190 47 e2 41 bb 2a 4e fc 3d 01 13 ca bd 7e 8e cd 3c
       -0.0029584335 0.12319596 -0.09866906 0.02509236
0001a0 52 01 95 3c 77 73 06 3c f6 a5 13 3e 08 76 b5 3d
       0.018189106 0.00820624 0.14418778 0.08860403
0001b0 58 9c 9d bc a2 3a 9c bd 0b 2d 26 bd 48 81 9d 3d
       -0.01923959 -0.07628371 -0.0405703 0.07690674
0001c0 06 46 0a 3e fd e3 e1 3d 24 81 3e bd 66 6a 89 bd
       0.13503274 0.110298134 -0.046509877 -0.06709747
0001d0 e1 4f a7 bc 53 11 d7 3d 8c 66 7d bd f5 91 26 3e
       -0.020423831 0.10501351 -0.061865374 0.16266616
0001e0 d9 34 5b 3e eb 58 18 3d a3 41 b1 bd bf 21 66 3d
       0.21406879 0.037194174 -0.08655097 0.056184527
0001f0 60 d1 b2 3d 85 c0 98 bc 6d 31 ab 3c 40 c4 ea 3d
       0.08731341 -0.018646488 0.020897591 0.11463213

arith.constant5 f4 [10]
000000 e2 74 76 bd 89 94 44 be a2 84 05 3c 66 72 ed 3d
       -0.060170062 -0.19197287 0.008149298 0.115940854
000010 19 47 de bd 25 d9 6d be 38 95 09 3e 8f 19 15 3e
       -0.108534046 -0.23227365 0.13435829 0.14560531
000020 47 e5 71 3d ad ed cc bd
       0.059056547 -0.100062706

sequential_1/conv2d_2_1/convolution f4 [32, 3, 3, 1]
000000 d3 27 85 3e f5 6b bd bc c1 79 80 be 34 d4 00 3e
       0.26006946 -0.023122767 -0.2509289 0.12580949
000010 59 05 63 3e c8 1a bc be d8 ef 75 3d 8b 3d ba bd
       0.22170009 -0.36739182 0.060043186 -0.0909377
000020 71 80 cc 3c 2a 7d b4 3e 5e 81 97 3e 66 79 8a 3d
       0.02496359 0.35251743 0.29590887 0.06761436
000030 b3 e3 81 be d8 9d 7f be 95 12 8e bd 4b 18 56 bf
       -0.25369033 -0.24962556 -0.06937138 -0.8363082
000040 37 f6 ca bf d6 b7 5a bf 9c f1 95 3e b1 97 84 be
       -1.5856389 -0.8543676 0.29285896 -0.2589698
000050 6b 45 32 bc 10 a6 91 3e 43 de 64 be 5c c5 88 bd
       -0.010880808 0.28447008 -0.22350411 -0.06678268
000060 47 7b 2d 3e 95 da 91 be f9 5a db 3d 0b 49 b6 3d
       0.16941558 -0.28487077 0.10710711 0.089006506
000070 27 54 e2 3c a7 f3 d5 3d 32 55 a5 be 18 72 86 3e
       0.027628018 0.104468636 -0.3229156 0.26258922
000080 73 b3 c6 3d 05 a8 a1 be e6 5c f3 3d e9 d7 59 3d
       0.09702196 -0.315735 0.11882953 0.053184424
000090 92 b7 9b 3e 38 6a 3c bd 45 b0 c9 bd f5 fd 10 3c
       0.3041349 -0.045999736 -0.09848074 0.008849611
0000a0 5f 4c cb 3e 44 50 45 3e cf 0c 95 be 1f 12 d9 be
       0.39706704 0.192689 -0.29111335 -0.42396638
0000b0 5d 77 b6 bd c1 55 1a 3e 5d 1e af 3e 3b 44 a3 be
       -0.089094855 0.15071775 0.34202853 -0.31887993
0000c0 3b b4 71 bc e7 10 c1 be f5 ae 83 3d fe 6b d3 ba
       -0.014752443 -0.37708208 0.06429855 -0.0016130207
0000d0 05 6e 9d 3c 57 ee 26 bc 42 64 b3 bc b3 f6 da 3d
       0.0192175 -0.010188661 -0.021898393 0.106915854
0000e0 5c bd ee bc 7f 38 9f be b0 43 03 bd d0 f3 0b be
       -0.029143028 -0.3109779 -0.032046974 -0.13667226
0000f0 d8 58 1c 3e 36 a6 23 3e f9 61 41 3e 85 b1 15 be
       0.15268266 0.15981373 0.1888503 -0.146185
000100 2b 62 96 be 5c bb 20 be 72 d3 ff be 57 09 23 be
       -0.2937177 -0.15696472 -0.49966007 -0.15921532
000110 e6 06 a9 3e d8 bf cd 3d 59 8c 82 3e ca c0 4b 3e
       0.33013076 0.10046357 0.25497702 0.19897762
000120 0b be f5 be 76 7a c4 bf 53 3f 9a be 49 b2 d3 3c
       -0.47996554 -1.5349872 -0.30126438 0.025841849
000130 7c 38 9c be b5 5b 69 3e 15 f1 b9 3e 4b 63 69 3c
       -0.30511844 0.2278889 0.36316743 0.014244865
000140 9f ec 2c 3e 45 77 80 3c 91 89 48 be 3d 73 7e bd
       0.16887139 0.015681872 -0.19583727 -0.06212162
000150 94 ea fc 3d bf 99 3d 3e b6 4b 1d 3e 38 52 bc bd
       0.1234943 0.1851568 0.15360913 -0.091953695
000160 87 82 a5 3d d7 cc 09 3d 7a b1 c3 bd 5c 72 aa 3e
       0.08081537 0.033642616 -0.09555335 0.33290374
000170 3f 43 b8 be b2 66 62 3e 01 36 87 bd f8 17 ae 3c
       -0.35988805 0.22109488 -0.06602097 0.021251664
000180 84 c4 67 be 2e 1f 5a be 43 c8 bc 3e b0 43 d6 bf
       -0.22633559 -0.21300957 0.36871538 -1.6739407
000190 d4 55 be bd 39 fd ac 3e 8d 87 c4 bf ce a0 c5 bd
       -0.09293714 0.33786944 -1.5353867 -0.09649812
0001a0 e3 ce 54 be 03 16 02 3e 8e 98 13 bd ef df 1d bd
       -0.20782046 0.1270371 -0.03603416 -0.038543638
0001b0 e6 fa 91 bd 2b b7 ad 3b 7e a3 9f be 3b ed 43 3c
       -0.07127933 0.0053013763 -0.31179422 0.011958416
0001c0 b4 2f 58 3e 0a a6 87 be 45 47 6f 3d 04 55 48 3e
       0.21111947 -0.26493865 0.058417577 0.19563681
0001d0 e7 66 87 3d 15 de dc 3c de 94 2e 3e ae 91 3e 3d
       0.06611424 0.026961366 0.17048976 0.04652565
0001e0 95 e2 6b be ef 9f 05 bc 63 5f 1b 3c 54 7e 31 bd
       -0.23035653 -0.008155807 0.009483191 -0.043333367
0001f0 d4 e5 38 be 76 14 7a 3d 3d 72 49 3e 1c 42 93 be
       -0.18056422 0.06105467 0.19672485 -0.28761375
000200 2a 66 d2 3d ac 6a b2 3e bb 60 72 be eb 34 ef bd
       0.102733925 0.3484701 -0.23669712 -0.11680015
000210 86 ec 3b 3e 05 7d f3 bd 2a 8c ac bd 76 b0 bb 3d
       0.18351945 -0.1188908 -0.08425172 0.09164517
000220 d7 74 b5 3e 77 ae 5c 3e 22 1f 1d 3e 49 ef b0 3d
       0.35440704 0.21550928 0.15343907 0.0863939
000230 34 58 a0 be 6e 63 88 3d 14 88 6e be 89 d8 ad be
       -0.31317294 0.0665959 -0.23294097 -0.33954266
000240 7a 88 6e be 58 5e a4 bc 92 70 20 bc 10 6e 32 be
       -0.23294249 -0.020064518 -0.009792464 -0.17424798
000250 36 d6 8c 3e 54 1a 4d 3e 41 44 58 be ef 4b 1a 3e
       0.2750718 0.20029575 -0.21119787 0.15068029
000260 ed ba b2 3d 04 cb 6f be 92 13 21 3e 20 40 89 3d
       0.087270595 -0.23417288 0.15730122 0.06701684
000270 f5 0c a2 bd 87 06 65 bc af bc 68 bd 16 53 b8 bd
       -0.079126276 -0.013978607 -0.056820568 -0.090002224
000280 ef 24 77 3d 78 c0 9c bd 91 3d c4 be de 3c 96 3e
       0.060337957 -0.07653898 -0.3832822 0.29343313
000290 98 58 06 be f9 57 3e 3e c7 32 3c 3e c2 5e c7 bd
       -0.13119733 0.18588246 0.18378745 -0.097348705
0002a0 07 ed 54 3b 4b 2e 9e be db 48 b3 3d 38 93 84 3e
       0.0032489912 -0.30894694 0.087541305 0.2589357
0002b0 41 08 b9 bd c9 30 a8 be 17 ea d6 3d 5e 34 52 bd
       -0.090347774 -0.3284972 0.10493868 -0.051319472
0002c0 c2 22 3a 3e d3 a0 1a 3e 03 4a c4 3c 71 55 46 bc
       0.18177322 0.15100412 0.023961073 -0.012105332
0002d0 36 37 94 3d d5 6f 8c be 57 ee 59 3e 68 92 da 3d
       0.07237093 -0.2742907 0.21282326 0.10672456
0002e0 17 1c d0 be 58 5c 96 3e 3d 5a c5 bc 19 6e 48 be
       -0.4064643 0.29367328 -0.02409088 -0.19573249
0002f0 4b 70 49 3e 63 84 7d be e0 95 43 3e 57 4f 10 bf
       0.19671743 -0.24757533 0.19100142 -0.56371063
000300 10 83 a8 be 72 d4 c0 3c d2 2f d2 3e f5 9d 9f bd
       -0.32912493 0.023538802 0.4105211 -0.077938
000310 20 18 6f 3e b1 92 44 be ac 7d e3 bd ff 41 9c 3e
       0.23349047 -0.19196583 -0.111079544 0.305191
000320 36 d2 c2 bd 9b 02 81 bd 01 b1 b5 3e 57 8f ac be
       -0.09512751 -0.06299325 0.35486606 -0.3370311
000330 e7 16 ab 3d 10 54 07 3d 0d 7d 17 be d4 6e 65 3a
       0.08353978 0.033039153 -0.14793797 0.00087521714
000340 7a 0a 29 bf 15 82 b9 be 4c 5a c3 3e 78 bc f4 bd
       -0.6603161 -0.36232057 0.3815483 -0.1195001
000350 8f 65 9d bc a9 63 40 3e 16 18 4b be bf 35 1e 3e
       -0.019213466 0.18788017 -0.19833407 0.1545019
000360 fc 15 9c 3e 09 de 87 3d 20 05 b1 be 7c e7 db 3d
       0.30485523 0.06634147 -0.34574223 0.107375115
000370 50 b0 12 bd bc fb 92 bd 06 76 0b be 48 3d 04 be
       -0.035812676 -0.07176921 -0.13619241 -0.12914002
000380 95 69 86 3e 28 a4 d7 bd 5d dd 75 be ca 95 b5 3e
       0.26252428 -0.10529357 -0.24010225 0.35465842
000390 53 3e 74 be 91 68 04 3e a2 af ec 3d 99 df 49 be
       -0.238519 0.12930514 0.11556937 -0.19714202
0003a0 c9 49 39 3e aa c4 99 bc 9c c9 db 3d 93 f0 47 3e
       0.18094553 -0.018770535 0.10731813 0.19525366
0003b0 e6 19 b3 be 07 2b ab bd 28 af 0e 3e 26 6d b0 bd
       -0.34980696 -0.08357816 0.13934004 -0.086145684
0003c0 b1 b9 a5 be a0 87 04 3d de a6 c5 3e 4f 6e 10 3e
       -0.32368234 0.032355905 0.38603872 0.1410458
0003d0 06 21 26 3d 72 5b c7 bd 53 ed 48 3d 7f 05 cc bb
       0.040558837 -0.09734239 0.049054455 -0.006226241
0003e0 0e b4 d3 3d fc 06 99 be 32 47 21 3e a6 da 51 3d
       0.10337077 -0.2988814 0.15749815 0.05123391
0003f0 9f 70 64 be 0f ec ad 3e 59 3a bd bd 23 1e 0d be
       -0.22308587 0.3396916 -0.092396446 -0.13781027

sequential_1/conv2d_2_1/Relu;sequential_1/conv2d_2_1/BiasAdd;sequential_1/conv2d_2_1/convolution; f4 [32]
000000 50 77 0f 3c 54 93 81 3e 3d e3 96 bc cd 1b a7 bd
       0.008756474 0.25307715 -0.018418903 -0.081595995
000010 0f 81 da ba eb 44 25 bc 75 63 12 be 5d 2a 04 bc
       -0.0016670543 -0.010087232 -0.14295752 -0.008066741
000020 f0 f2 61 3d f7 32 08 be 37 71 48 3c 4e 30 65 3e
       0.055163324 -0.13300692 0.012234024 0.22381708
000030 c8 74 0e bd a4 1f d3 bd 8a 19 52 bb 23 8f ff bc
       -0.03477934 -0.10308769 -0.003205868 -0.031196183
000040 0d 1f fe bb 65 d9 6a bb c5 6f 31 bc a7 75 2b be
       -0.0077551664 -0.0035835144 -0.010829871 -0.167441
000050 f9 49 e7 bb 86 2d 7c b9 61 d3 b6 bc 71 e8 c6 3c
       -0.007058379 -0.00024049552 -0.02231759 0.024280759
000060 e6 27 b4 bb c8 5e 00 3b 9d 65 c2 bc 67 ee 17 be
       -0.0054979203 0.0019587744 -0.023730094 -0.14837037
000070 2d c7 99 bc e7 e8 98 3a 39 4d 4a be c0 3a 32 3b
       -0.018771732 0.001166609 -0.1975602 0.0027195662
